src/rec_system/model/output/neumf_factor8neg4_Epoch4_HR1.0000_NDCG1.0000.model (torch, 39758 bytes, 17 tensors)

embedding_user_mlp.weight f4 [200, 4]
000000 45 bb a5 3c 53 4b 79 bd da bd 9a 3d c8 e6 86 3d
       0.020230899 -0.06086285 0.075557426 0.06586987
000010 ea 10 fa 3c a1 59 bd bc b8 29 0e 3d 37 18 f5 3c
       0.030525643 -0.023114027 0.034707755 0.029918773
000020 72 ba 60 3d e2 1b a0 bc 1d 58 26 3d 4c 96 42 3d
       0.054865308 -0.019544546 0.040611375 0.047506616
000030 a5 a7 0b 3c 17 5b 44 bd 77 9b 55 3d f9 99 4d 3d
       0.008523856 -0.047938433 0.052150216 0.050195668
000040 57 51 47 bc 6d 9c 5f bd 6a 49 87 3d 17 96 75 3d
       -0.012165389 -0.05459254 0.066057995 0.05995759
000050 ae d1 62 3c 52 4f 4e bd 0b 95 33 3d 68 07 3e 3d
       0.013843937 -0.050368614 0.04384331 0.046393782
000060 17 8d fe bb 86 b9 18 bd 05 18 4c 3d 35 e1 22 3d
       -0.007768284 -0.037286304 0.049827594 0.039765555
000070 7e d4 e0 bb 28 22 15 bd 2e af 5a 3d 41 6a 93 3c
       -0.0068612685 -0.036409527 0.05338972 0.017995002
000080 d5 52 43 3d 7e b9 5f bd e5 92 8a 3d e7 03 5a 3d
       0.047686417 -0.05462026 0.06766299 0.053226378
000090 d6 97 8a bc 1d 32 21 bd 42 82 40 3d a0 e1 30 3d
       -0.016918104 -0.039354432 0.046999224 0.043183923
0000a0 cc e7 cd 3a 8d a0 14 bd d1 12 42 3d 80 0d 46 3d
       0.001570934 -0.036285926 0.047381226 0.04835272
0000b0 f1 1b 19 3c fc 0f 54 bd b1 ce 22 3d ff 80 0f 3d
       0.009345041 -0.051773056 0.039747898 0.03503513
0000c0 fe 9e c8 3c ea 79 ab bc e1 5b 03 3d e1 d3 db 3c
       0.024489876 -0.020932157 0.032070044 0.02683443
0000d0 2e b1 2f bc a6 f3 af bc 68 66 21 3d e9 06 ce 3c
       -0.010723395 -0.021478485 0.039404303 0.02514978
0000e0 a8 52 ef 3c d0 d9 a5 bc b1 65 0c 3d ba 39 d6 3c
       0.029214218 -0.020245463 0.034276668 0.026150573
0000f0 28 d4 d8 bc 25 c9 7a bd 9a 0d 57 3d d7 de 52 3d
       -0.026468351 -0.061226983 0.052503206 0.051482048
000100 5f 64 56 3d 9c ca 7a bd 4c ba 52 3d 5a c9 62 3d
       0.052341815 -0.06122838 0.051447198 0.055367805
000110 05 4b 39 3d 12 de 32 bd c1 60 5d 3d 1c 8c 45 3d
       0.04523756 -0.043668814 0.05404735 0.04822932
000120 19 48 1a bb 7e 81 28 bd 7b 99 47 3d 95 d2 0a 3d
       -0.0023541509 -0.04113912 0.048730355 0.033892233
000130 a3 15 b5 3b ae a7 e2 bc 3a f9 10 3d bf 04 3f 3d
       0.005526261 -0.027667847 0.03539393 0.046635386
000140 ce 0d 0f bd ea 1f 37 bd d6 11 5a 3d 3d 1a 41 3d
       -0.034925275 -0.04470817 0.053239666 0.047144163
000150 da 3a 1e 3d 3a 39 b1 bc 13 05 34 3d 47 33 56 3d
       0.038630344 -0.021633733 0.04395015 0.052294996
000160 00 6a 88 bc b8 85 19 bd 2f 40 fb 3c ee e9 18 3d
       -0.016652107 -0.03748104 0.030670254 0.037332468
000170 e0 2d 34 bd 54 3b f9 bc 79 f0 30 3d 2a 47 2f 3d
       -0.043989062 -0.030423798 0.043198083 0.042792477
000180 3b 6e e3 3c 0f 54 f7 bc 75 6b 00 3d a3 f8 e0 3c
       0.027762523 -0.03019145 0.03135248 0.02746231
000190 1f be 84 3a 84 7b 34 bd 1f c9 49 3d 3f ae 42 3d
       0.0010127461 -0.044063106 0.04926407 0.047529455
0001a0 7f ff 0a bd fb bf 0f bd 34 d2 db 3c 77 48 17 3d
       -0.033935066 -0.035095196 0.026833631 0.036934342
0001b0 a7 95 0d bd e4 c5 36 bd 96 0f 15 3d 15 17 30 3d
       -0.034566548 -0.044622317 0.036391817 0.042990763
0001c0 cb 1d 99 3b 3b 76 36 bd 62 64 4a 3d c5 c7 43 3d
       0.004672741 -0.044546347 0.04941214 0.047797937
0001d0 6d 85 e7 bc 59 82 c2 bc 16 f1 b8 3c 89 d3 c1 3c
       -0.028261865 -0.023743795 0.022575896 0.023660438
0001e0 6e ee 45 bc 48 95 54 bd c7 b8 52 3d 90 69 49 3d
       -0.012080772 -0.05190018 0.05144575 0.049172938
0001f0 7c bc c0 bc d2 f0 d5 bc 39 c9 06 3d fd 1c d9 3c
       -0.023527376 -0.026115809 0.032906745 0.02650308
000200 ab a2 9f bc 8b ba 72 bc 1d 0e 29 3d 88 4b d7 3c
       -0.019486746 -0.014814983 0.041273225 0.026281133
000210 42 2f 4d bc 9f 13 2c bd 48 de 39 3d ee 9c 20 3d
       -0.012523474 -0.0420109 0.045378 0.03921216
000220 66 fe 39 3d 33 8a 3c bd 91 a9 3e 3d 0d 66 5b 3d
       0.04540863 -0.046030235 0.04654843 0.05356412
000230 50 fb 91 bc d3 15 b4 bc 5a d1 56 3d 1e 93 fc 3c
       -0.01782003 -0.021983063 0.052445747 0.03083187
000240 6b ae d8 3c bc ee a9 bc 9a d6 ad 3c c8 cd e6 3c
       0.026450356 -0.02074372 0.021220494 0.028174296
000250 9c 98 86 3d 2b 9a be bc 51 8f 22 3d e7 86 20 3d
       0.06572077 -0.023266872 0.03968746 0.039191153
000260 33 9a a0 bc aa 0d b5 bc bd af e2 3c 25 65 ec 3c
       -0.019604778 -0.022101242 0.02767169 0.028856823
000270 50 4e 11 3d ad ff a6 bc 9f 29 13 3d 78 0e ec 3c
       0.035475075 -0.020385588 0.035928365 0.028815493
000280 f5 5c 29 3d 5c a3 be bc c0 4b 2b 3d ca 14 11 3d
       0.041348416 -0.023271255 0.041820288 0.035420217
000290 75 4b b8 bc 66 78 84 bc 9a ce ce 3c 22 24 fd 3c
       -0.022496918 -0.016170692 0.025245 0.030901019
0002a0 96 a2 8c bb 4e 27 31 bd ff 43 3c 3d 59 34 2f 3d
       -0.0042918427 -0.043250374 0.045963284 0.042774532
0002b0 e1 59 10 3d 71 29 61 bd 40 2e 3c 3d 42 e4 61 3d
       0.035241965 -0.054971162 0.045942545 0.055149324
0002c0 a4 30 71 3d 10 b2 14 bd 7d 75 19 3d de 39 3f 3d
       0.058884278 -0.036302626 0.03746556 0.046686046
0002d0 1b 2e 0a 3d c8 c2 0f bd 81 d8 12 3d f9 fe 11 3d
       0.033735376 -0.035097867 0.035851005 0.03564355
0002e0 46 c6 dd 3c 30 dd f0 bc 2d 9f e6 3c f6 fe e2 3c
       0.027072083 -0.029402345 0.028152073 0.027709465
0002f0 6d e0 f1 3c 40 c6 e3 bc 2b 7d 0d 3d 63 68 04 3d
       0.02952596 -0.027804494 0.034543198 0.032326113
000300 cc 1c 96 bc f7 b9 b9 bc e1 41 17 3d 9a af 15 3d
       -0.018324278 -0.022671683 0.03692806 0.03654442
000310 1c b9 25 bd 28 1d 26 bd 69 c5 f1 3c 49 a9 10 3d
       -0.040459737 -0.04055515 0.029513078 0.035317693
000320 01 49 03 3c b6 aa 41 bd 0d 14 32 3d e6 3e 48 3d
       0.008013011 -0.047281943 0.043476153 0.04888811
000330 1b ab 0d bd c7 e5 88 bd 99 e8 74 3d b6 6d 5e 3d
       -0.034587007 -0.066844516 0.059792135 0.054303847
000340 ce 7c 75 bc 55 46 37 bd 46 49 52 3d 63 bd 23 3d
       -0.014983369 -0.04474481 0.05133941 0.039975535
000350 32 f1 1e 3d 0c 71 3a bc e2 68 2b 3d 7b 2d 0c 3d
       0.03880424 -0.011379492 0.04184807 0.03422306
000360 a9 34 14 3c ad 15 26 bd 7d df 3f 3d 76 da 28 3d
       0.009045758 -0.040548015 0.046843994 0.041223966
000370 34 b7 1c bd 17 f8 10 bd e3 70 0a 3d fd 94 19 3d
       -0.038260654 -0.035392847 0.033799063 0.037495602
000380 2a 64 58 3d 08 f5 2e bd 1c af 19 3d 2e d9 49 3d
       0.0528299 -0.04271415 0.037520513 0.049279384
000390 62 a4 dc 3c 35 89 e2 bc 8b 44 f7 3c 7c e7 dc 3c
       0.026933853 -0.027653316 0.030184051 0.02696585
0003a0 73 cc b0 3b fc 01 18 bd 5f 0e 1f 3d ef 5f 28 3d
       0.005395466 -0.037111267 0.038832065 0.041107114
0003b0 e3 9b 1b 3a 74 cf 40 bd 5f f7 5d 3d 05 fc 58 3d
       0.00059360097 -0.047072843 0.05419099 0.05297472
0003c0 51 c2 9b bc 22 3b ba bc f4 31 01 3d 20 01 c2 3c
       -0.019013556 -0.022733275 0.03154178 0.023682177
0003d0 26 ea 45 bc 13 e9 1a bd 79 af 09 3d ee 3c 20 3d
       -0.012079751 -0.037819933 0.03361461 0.039120607
0003e0 01 82 81 bc b8 53 74 bd b2 d2 80 3d fb 6a 74 3d
       -0.015809061 -0.059650153 0.06290187 0.059672337
0003f0 41 36 d6 bb 74 90 a0 bc 53 02 60 3d 4a 87 44 3d
       -0.0065372293 -0.01960013 0.054689717 0.047980584

embedding_item_mlp.weight f4 [200, 4]
000000 22 70 16 bd 23 cf a4 bb f6 a3 b9 bb 4e 62 83 3d
       -0.036728032 -0.0050295754 -0.0056652976 0.064152345
000010 1c fe 04 bd c8 a3 d7 3c 2e 5c c4 bc 79 5c f7 3c
       -0.0324689 0.026323214 -0.023969736 0.030195462
000020 83 19 20 bd 1b c9 51 3d 9e fc 47 3d dd e0 da 3c
       -0.03908683 0.05121718 0.0488249 0.026718551
000030 8a 56 4c bd 2e cd 5b 3c 38 42 43 3c ea 25 43 3d
       -0.049887218 0.013415618 0.011917643 0.04764358
000040 17 c3 5b bd 03 98 04 bd 68 b3 29 bd 54 f5 71 3d
       -0.05365285 -0.032371532 -0.04143086 0.059071854
000050 b4 2e 51 bd 60 ce c6 3b ec f9 34 bd 47 8a 3e 3d
       -0.05106993 0.0060670823 -0.044183657 0.04651859
000060 9b 9b 27 bd ac 79 82 bc 53 9e 3f bc fa 29 fb 3b
       -0.04091988 -0.015927158 -0.011695462 0.007664916
000070 b1 ce 14 bd a0 3e 07 bc de 41 d4 ba d7 75 a7 3c
       -0.03632993 -0.008254677 -0.0016193946 0.020441933
000080 43 8f bc bc 1c 05 2a 3d c3 eb 87 3d b9 42 66 3d
       -0.023017531 0.04150878 0.06636765 0.056215975
000090 17 c2 2a bd 15 b5 8c bb 48 c4 6b bc 70 ed a4 3c
       -0.041689005 -0.0042940476 -0.014390059 0.02013275
0000a0 63 7b 64 bd 7e 36 8b bc 06 be b1 bc 7e dd 53 3d
       -0.055781733 -0.016993757 -0.021697056 0.051724903
0000b0 7f 12 62 bc 6c f1 d9 3b 21 e9 8a 3c 56 25 3c 3d
       -0.013798355 0.006651094 0.016956868 0.045934044
0000c0 4f 50 be bc e6 92 d7 bc 06 79 ed bc 61 09 f4 3c
       -0.023231653 -0.026315164 -0.028988373 0.029789628
0000d0 32 43 19 bd 33 ea b6 bc 10 74 6e bc dc c1 0d 3d
       -0.037417598 -0.022328472 -0.014554039 0.034608707
0000e0 de 43 f2 bc 33 19 db 3c c7 4c da 3c 42 33 ff 3c
       -0.029573377 0.026745414 0.026647938 0.031152371
0000f0 92 44 56 bd 09 a6 11 bd 6d 3d e9 bc 8c 2a 58 3d
       -0.052311487 -0.035558734 -0.028471673 0.05277495
000100 04 9b 65 bd 2d b1 67 3d 31 a8 93 3d 6e c9 9d 3c
       -0.056056038 0.056565452 0.07209814 0.019261088
000110 9e 3a 81 bc 63 b3 3b 3d 67 c9 12 bc 4c ca 2a 3d
       -0.015775021 0.045825373 -0.008959151 0.04169683
000120 b7 43 1f bd ca b8 46 bc 4c cc 12 bc f6 13 23 3c
       -0.038882937 -0.012129018 -0.008959841 0.0099534895
000130 ee 34 2c bd 1d ad 34 bc 86 3d 1f bc 54 ee 3d 3d
       -0.042042665 -0.011027602 -0.009719258 0.046369866
000140 e2 f5 36 bd 56 9a 01 bd a6 ae 1f bd cd 8b 35 3d
       -0.044668086 -0.031641327 -0.038984917 0.044322778
000150 c6 14 fb bc 4a a8 09 3d cb 8e 6a bc 11 4c 1c 3d
       -0.030649554 0.03360776 -0.014316271 0.03815848
000160 9d f9 32 bd 93 60 98 bc 84 ca 40 bc c5 21 46 3c
       -0.04369508 -0.018600738 -0.0117670335 0.012093012
000170 5f e2 1d bd 67 23 31 bd 13 e4 2f bd f7 f7 01 3d
       -0.038545962 -0.043246653 -0.042942118 0.03173062
000180 62 59 d6 bc e1 d9 dc 3c 75 6a e0 3c 79 e4 03 3d
       -0.026165668 0.026959362 0.027394513 0.03220031
000190 cc 75 90 bc 07 fc 4c ba fb 50 66 bc 3b 9d 62 3d
       -0.017634295 -0.00078195374 -0.014057393 0.055325728
0001a0 32 7b 0a bd 37 3d d6 bc 81 a7 0f bd d7 6c 0a 3d
       -0.033808894 -0.026152236 -0.035071854 0.033795204
0001b0 71 85 42 bd 0c f8 21 bd c4 6b 26 bd e3 ef 1e 3d
       -0.04749054 -0.039543197 -0.040630117 0.038802993
0001c0 0a e1 53 bd 34 f7 20 3c ad 28 39 3c 19 1f 44 3d
       -0.051728286 0.009824563 0.011301202 0.04788122
0001d0 88 84 d1 bc f9 c7 c2 bc 60 b5 d9 bc 88 aa ef 3c
       -0.025575891 -0.023776995 -0.026575744 0.02925612
0001e0 4c 3f 60 bd e3 6f 0c bd 73 73 0b bd 05 2c 13 3d
       -0.054747865 -0.03428639 -0.034045648 0.035930652
0001f0 1b ab d6 bc df 54 d5 bc 96 05 d9 bc 3c 95 fb 3c
       -0.026204636 -0.026041446 -0.026491921 0.030710809
000200 76 95 b6 bc 06 a3 c0 bc ef 6e be bc b0 de 2c 3d
       -0.022288065 -0.023515236 -0.023246257 0.04220456
000210 e8 27 0b bd 8a 4b 86 bc 37 1a 67 bc 4c c4 3e 3c
       -0.033973604 -0.016393442 -0.014105371 0.0116434805
000220 96 12 11 bd dd 34 3e 3d 61 6c 0f 3d 98 fb 39 3c
       -0.035418116 0.046437133 0.035015468 0.0113514885
000230 4b cf 23 bd 0b 2d c2 bc 3f 24 ea bc c3 20 19 3d
       -0.03999261 -0.023703119 -0.028581737 0.03738476
000240 6b fb e3 bc 77 d4 d4 3c e7 f5 cf bc 27 8d dc 3c
       -0.027829846 0.025980217 -0.02538581 0.026922775
000250 28 ff 00 bd be 30 81 bc cf 53 73 bc 3e 4f 2f 3d
       -0.031493336 -0.015770312 -0.0148515245 0.04280018
000260 9e 9d eb bc 9e d3 df bc d3 37 e9 bc ad cf 03 3d
       -0.028761681 -0.027322587 -0.028469002 0.032180477
000270 24 fd f8 bc 59 73 d8 3c a8 90 05 3d da 4f 08 3d
       -0.030394144 0.02642219 0.032608658 0.033279277
000280 12 e6 09 bd 56 69 05 3d f2 1b 3b 3d 19 6c 2b 3d
       -0.033666678 0.03257116 0.045680948 0.041851137
000290 d6 3d d8 bc 45 f0 f3 bc b9 e7 cb bc b1 f2 d3 3c
       -0.026396673 -0.029777655 -0.024890767 0.02587256
0002a0 a2 c9 1c bd 81 ba 30 bd a3 8d 2d bd a9 79 03 3d
       -0.03827823 -0.043146614 -0.042371403 0.032098446
0002b0 3c 49 5a bd 27 88 d4 3c 7d b6 d9 bc d3 e3 63 3d
       -0.053292498 0.025943829 -0.026576275 0.055637192
0002c0 e0 12 08 bd 37 98 61 bc 3f a1 db bb 75 6f 78 3c
       -0.033221126 -0.013769201 -0.0067025716 0.015163292
0002d0 dc 89 14 bd d9 0f 0b 3d 95 40 0c 3d 0f 16 05 3d
       -0.036264285 0.03395066 0.034241278 0.03249174
0002e0 11 6a e2 bc 72 ee e3 3c 29 75 de 3c e5 28 dd 3c
       -0.027638467 0.02782366 0.027155476 0.02699704
0002f0 ce e3 dc bc c8 e8 cb 3c 8a c1 ee 3c 10 87 f8 3c
       -0.026964094 0.024891272 0.029145021 0.03033784
000300 bc 43 1f bd 26 88 6d bc 43 b4 40 bc 5f c2 99 3c
       -0.038882956 -0.014497792 -0.011761728 0.018769441
000310 77 f4 19 bd 68 c3 14 bd 5e 7e 2f bd b6 37 20 3d
       -0.037586655 -0.036319166 -0.042845123 0.03911563
000320 d5 7e 40 bd c6 07 52 3c 5b 92 13 3b a2 92 51 3d
       -0.046995956 0.012819236 0.0022517655 0.05116523
000330 21 e3 5c bd cb 13 02 bd 89 f3 f7 bc 03 fa 78 3d
       -0.053927545 -0.031757157 -0.030267494 0.060785305
000340 23 8b 67 bd 0e 67 a4 bc dd a1 bb bc 3d 11 73 3d
       -0.056529175 -0.020068672 -0.02290433 0.05934261
000350 21 b1 05 bd 96 20 04 3d 06 01 13 3d 51 75 eb 3c
       -0.032639626 0.03225764 0.035889648 0.028742464
000360 6b 38 71 bd 66 5a 1d 3c 68 61 bb 3b 2b 1f 60 3d
       -0.058891695 0.009604072 0.005718399 0.054717224
000370 4c fa 23 bd e8 b7 ea bc 37 d1 04 bd 67 9e 10 3d
       -0.040033624 -0.028652146 -0.032426085 0.035307314
000380 6f 18 50 bc 69 56 0e bc 59 5e 65 bc 8a 79 1c 3d
       -0.012701138 -0.008687594 -0.013999545 0.038201846
000390 ea 12 d9 bc fb 5b df 3c ba 67 c9 3c cb 0e d9 3c
       -0.026498277 0.02726554 0.024585593 0.026496312
0003a0 18 ef 23 bd 9a b9 37 bd 72 fa 29 bd 3a 53 3c 3d
       -0.04002294 -0.044854738 -0.04149861 0.04597781
0003b0 40 b9 55 bd 4b 74 8e bc e2 08 9d bc 84 ad 14 3d
       -0.05217862 -0.017389437 -0.019169275 0.03629829
0003c0 95 ef f5 bc a3 02 e6 bc f4 45 d2 bc d2 e6 e8 3c
       -0.030021468 -0.02807743 -0.025668122 0.028430376
0003d0 dc bc cb bc a3 f4 5f bc 60 68 79 bc 3f 3a f4 3c
       -0.024870329 -0.013669166 -0.015222639 0.02981293
0003e0 68 0b 59 bd 6d 41 ff bc b6 e9 e0 bc 70 aa 77 3d
       -0.052989393 -0.031159127 -0.027455192 0.060465276
0003f0 7d 8e 07 bd 05 a9 26 bc 00 50 29 bc de 96 05 3d
       -0.03309487 -0.010172133 -0.010334015 0.03261458

embedding_user_mf.weight f4 [200, 4]
000000 d7 f5 0f bd ac 73 30 3d ef 95 33 3d 1e fb 32 3d
       -0.03514656 0.043079063 0.04384416 0.043696515
000010 f5 ea 0a 3d 08 ef 31 bd 4c 69 03 bd 04 db 38 bc
       0.03391548 -0.04344085 -0.03208284 -0.011282686
000020 52 ac c7 3c 89 59 21 3d d3 b2 84 3c 06 fa 4a bd
       0.02437416 0.039392028 0.016198551 -0.049554847
000030 0c 13 c3 3c b8 30 72 bc ff 63 ff 3b dc 81 44 bd
       0.023812793 -0.014782123 0.007793903 -0.047975406
000040 a9 dc 63 bc 8b b6 33 3d cd fd 44 bd 28 cb a6 3c
       -0.01390759 0.04387526 -0.048093606 0.020360544
000050 96 1f 39 bd f2 b5 57 3c 63 ff 07 bd 39 dd 3f 3d
       -0.04519614 0.013165938 -0.03320254 0.046841834
000060 66 6f 2c bc 2d f9 00 3c a0 02 ee bb 98 e1 35 3d
       -0.010524606 0.007871908 -0.0072634965 0.044404596
000070 8e a4 1c bd 24 52 ad 3b c1 78 be 3b ea f0 cb bb
       -0.03824287 0.005289333 0.005812735 -0.0062237876
000080 cb 1b 8f 3c a8 ac 7b bc b8 12 66 bd 11 a0 a7 39
       0.017469307 -0.015360989 -0.056170195 0.0003197198
000090 7a ec 0f 3d 1d db 20 bc 3c fd 3e 3d 59 c6 79 bd
       0.03513763 -0.009817866 0.046628222 -0.060980175
0000a0 3d 9e a9 3a f5 78 e8 bc 5d 68 11 3c 84 7d ba 3b
       0.0012940835 -0.02837799 0.00887498 0.005691232
0000b0 0c bf 23 bd e7 3d 77 3a 22 62 50 3d 44 2e 7d bc
       -0.03997712 0.00094315264 0.050874837 -0.015452925
0000c0 6d 8a 09 3d 9c 2c aa 3c 9e d8 ca 3b 52 ee 41 bd
       0.03357928 0.020773225 0.0061903736 -0.04734642
0000d0 6a 8a 0a 3d ba 06 33 3d 9d 93 28 3d 69 a0 e0 3b
       0.03382341 0.043707587 0.0411564 0.00685506
0000e0 c0 cd 8e bc bf 84 34 3d 29 05 42 3d a9 09 4e 3c
       -0.017432094 0.04407191 0.047368202 0.012575545
0000f0 df 1b 30 bd 1e f2 2f 3d 8b 77 31 bd 07 60 52 3d
       -0.04299533 0.04295551 -0.043326896 0.05136111
000100 4d 44 7c 3b 1c 12 7e 3d b5 d9 e9 3c e0 f9 ab bc
       0.003849286 0.06202899 0.028546194 -0.020993173
000110 58 f8 54 bd 78 17 46 3d ef 86 3a 3d b1 72 24 3d
       -0.05199465 0.048362225 0.04553884 0.04014844
000120 61 1f 0e 3d 02 e9 65 bd 98 9a 37 3d 98 04 80 bc
       0.034697894 -0.056130417 0.044825166 -0.01562719
000130 ed 03 fe bc 84 0f af bc 70 8c 45 3d 11 aa 5e bd
       -0.031007731 -0.021369703 0.048229635 -0.054361407
000140 72 c0 31 bd 39 9d 48 3d 79 99 58 3c 40 b9 2a 3d
       -0.04339642 0.048978064 0.0132201845 0.041680574
000150 c0 db b3 3b 2a 5a d0 bb 2c 03 4b bd 7d de 45 bd
       0.0054888427 -0.0063584046 -0.04956357 -0.048307884
000160 b6 26 11 bd 3d 4a 2e bd 13 9d 21 3d ee 6d 46 3d
       -0.03543731 -0.042551268 0.03945644 0.04844468
000170 b7 5a ec bb a8 f1 31 bd 7a 05 3d bc 1b 00 25 bd
       -0.0072129625 -0.043443352 -0.01153695 -0.040283304
000180 5c a6 80 3c 60 fe 28 bc e2 82 36 3b 0c 67 8e 3c
       0.015704326 -0.010314554 0.0027849008 0.017383121
000190 88 56 38 3d 6b 4f 67 bd b9 79 4d bd 09 47 3a bd
       0.045004398 -0.056472223 -0.050164912 -0.0454779
0001a0 61 b5 27 bd f4 5a 5a 3c 81 cf 78 bc be 1e fb 3b
       -0.04094446 0.013327349 -0.015186192 0.007663577
0001b0 09 4c 21 bd 90 bc 21 3d 2c 83 13 bc 3e c5 2f bc
       -0.039379153 0.039486468 -0.009003442 -0.010728179
0001c0 71 f9 8b bb 7a 8d 99 bc 50 46 29 bd 1a cb 34 3b
       -0.004271679 -0.01874422 -0.04132682 0.0027586878
0001d0 76 f8 0a 3d 40 e0 1e bd 79 38 1b 3d 08 36 84 bc
       0.033928357 -0.03878808 0.037895653 -0.016139045
0001e0 6c c8 cc 39 4b f3 78 bc 07 b8 60 bc 91 23 f0 b9
       0.00039059238 -0.015194724 -0.013715751 -0.00045802866
0001f0 a2 0b f2 bb 88 e9 20 bc ef 9a 5b bc f2 4e 02 bc
       -0.0073866406 -0.009821303 -0.013403638 -0.007953392
000200 1d 63 ce 3b ae b4 46 bd 50 60 26 3d 8b 71 67 bc
       0.0062984363 -0.048512153 0.040619195 -0.014126192
000210 7c 1e 1d 3d 5a c8 a2 bc b3 b7 21 3d 0b e6 5c 3c
       0.03835915 -0.019870926 0.03948183 0.013482581
000220 92 df b8 bb 5e df 38 3c c4 57 43 bd 72 0b 42 bd
       -0.005641886 0.011283724 -0.04769112 -0.047374196
000230 f1 24 1f 3d 5e a4 3a bd 78 b0 3f bd 7e b4 95 3c
       0.03885359 -0.04556691 -0.046799153 0.018274542
000240 f6 dd 16 bd 72 bd ca 3a be 57 f7 3b 8e 83 31 3c
       -0.036832772 0.0015467836 0.0075483015 0.010834588
000250 37 bb 20 3c 19 55 18 bc af 2c c3 bb a6 ad 3e bd
       0.0098102605 -0.009297633 -0.0059562544 -0.046552323
000260 ae fb bf bc a6 c0 2a bc 40 20 3a 3d 9d c7 52 3d
       -0.02343544 -0.0104219075 0.045440912 0.051459897
000270 3f a3 8b 3b 22 4e 9b bc 45 ab 16 bc 63 20 5b 3d
       0.004261404 -0.018958155 -0.009196107 0.053497683
000280 54 51 c7 bb 14 4d 55 bd f4 64 46 bd 3e 09 5a bd
       -0.006082693 -0.05207546 -0.04843612 -0.05323147
000290 dc 02 32 3b fd d4 22 bd 48 d3 f3 3c db 92 62 bd
       0.002716235 -0.039753903 0.029763833 -0.055315834
0002a0 b6 15 48 3d c9 d1 f9 3c 01 45 23 3c e8 d3 50 bd
       0.04884883 0.030495541 0.009965182 -0.05098334
0002b0 f8 4f 33 bd 47 75 44 bc 6e ff 62 bc 75 58 36 bc
       -0.043777436 -0.011990852 -0.0138548445 -0.011129488
0002c0 a5 9c 74 ba 41 a7 36 bd 2a df 3b 3d 53 11 27 bc
       -0.0009331203 -0.0445931 0.045867123 -0.0101970015
0002d0 94 dc eb bc 75 a7 4b 3d 4f 9f 40 bc e6 6a e0 3b
       -0.028791703 0.049720246 -0.011756732 0.006848681
0002e0 30 a2 09 bd 80 16 f3 bb b5 c7 37 bd 13 fe 79 3d
       -0.03360194 -0.0074184537 -0.04486819 0.06103332
0002f0 a7 18 24 3c 2c 51 e0 ba 22 dc 2c bd 60 80 0e 3c
       0.010015643 -0.0017114035 -0.042202123 0.008697599
000300 17 a6 06 bd d0 4a b2 bb 61 77 1f bd 87 9e 8c 3c
       -0.03287324 -0.0054410473 -0.038932208 0.017165435
000310 43 0d 34 3c 56 a0 35 bd 37 36 a7 bc f1 74 69 bc
       0.01098949 -0.04434236 -0.020411594 -0.014249072
000320 e8 8c 95 3c 86 21 56 bd 1e 13 3e bd 09 2b 52 3d
       0.018255666 -0.052278064 -0.04640495 0.051310573
000330 e5 5b de 3b 64 b4 9a 3c 40 15 27 3d 60 25 d9 bc
       0.006785857 0.018884845 0.04079175 -0.02650708
000340 a4 ff e6 bc 9e ec 79 3c 14 96 20 3d 46 90 3a bd
       -0.02819807 0.015254168 0.039205626 -0.045547746
000350 b7 0c 05 bc 02 bb 9a bc 15 53 6c bd 4f 20 82 3d
       -0.008120707 -0.018888 -0.05769642 0.063538186
000360 19 81 9e bc 56 4c 3f bd 0b 60 49 bd 6c 75 3d bd
       -0.019348668 -0.04670366 -0.04916386 -0.04625456
000370 14 01 13 bd ab 85 08 bd d6 e9 0e 3d ff b9 4a 3c
       -0.0358897 -0.0333306 0.034890972 0.0123734465
000380 77 96 9e 3c b8 68 37 bd de 41 34 3c 97 f6 79 3c
       0.019358857 -0.044777602 0.011002032 0.0152565455
000390 f0 b5 d8 3c 10 ac 32 3d 45 51 1c bd 98 08 49 3d
       0.026453942 0.043621123 -0.038163442 0.04908046
0003a0 f9 84 48 bd ba f1 a5 bc bb e0 09 3c c0 51 3f 3d
       -0.048954938 -0.020256866 0.008415396 0.046708822
0003b0 7e a3 53 bc 74 e9 34 3c 6e 13 4c 3c ec 7b 1d 3d
       -0.012917398 0.011041988 0.012455804 0.03844826
0003c0 fd 8c 19 3d 34 c2 1e bd f7 5c 8b bb 45 fd 63 bd
       0.037487973 -0.038759425 -0.0042530256 -0.05566146
0003d0 69 16 49 3c bc c7 16 bd ff 5f 14 3d e9 f1 2b 3d
       0.012273409 -0.036811575 0.03622436 0.04197875
0003e0 01 fa 0b bd 85 f2 57 3c b2 87 42 3d 8b 5d 36 bd
       -0.03417397 0.01318038 0.04749269 -0.044522803
0003f0 d9 07 a2 3c 3e d2 7c bc 95 ce 51 bd 54 21 22 3c
       0.019779133 -0.015430985 -0.051222403 0.009895641

embedding_item_mf.weight f4 [200, 4]
000000 97 4d 1e bd df 0b 64 3d 70 d2 44 3d 90 da 1e 3d
       -0.038648214 0.055675384 0.04805225 0.038782656
000010 17 87 11 3d 3f 6c 20 bd 5e 95 10 bd 1d 49 fd 3b
       0.035529222 -0.03916573 -0.035298698 0.007729663
000020 c6 37 fd 3c 72 ec f6 3c 6a c9 4f bc f5 da 42 bd
       0.030910384 0.030142043 -0.012682298 -0.047572095
000030 b3 8f 0a 3d 3c 30 53 bb 1e 1e 7a bc 1b 27 4b bd
       0.03382845 -0.0032224795 -0.01526597 -0.04959784
000040 6f 63 6c 3c 2d e2 1b 3d 9b 16 40 bd 65 e8 13 3c
       0.014428004 0.038057495 -0.04689656 0.009027575
000050 83 09 38 bd 37 cb 32 bc 45 6a 27 bd 72 a4 51 3d
       -0.044930946 -0.010912708 -0.04087283 0.051182218
000060 86 42 45 3c 1a df 6c bc 8e 13 75 3c 51 f9 36 3d
       0.012039786 -0.014457488 0.0149582755 0.04467136
000070 d8 da 02 bd ac 8b 8f bc 45 bc 98 bc f1 c6 84 3c
       -0.031946987 -0.017522655 -0.018644461 0.016208144
000080 d9 a5 27 bb 4e f0 55 3c a5 0d 63 bd 67 96 c1 3c
       -0.002558103 0.013057781 -0.055432934 0.023631288
000090 ed a2 01 3d f1 b6 5f 3c 12 62 38 3d 67 41 31 bd
       0.03164952 0.0136544565 0.045015402 -0.043275263
0000a0 ea 62 21 39 40 21 0a bd 5c 59 2c bc ff 66 0f bc
       0.00015391005 -0.033723116 -0.010519352 -0.0087525835
0000b0 9b ad 06 bd be 77 7d bc d3 4c 59 3d 49 65 b8 3b
       -0.032880407 -0.015470443 0.05305178 0.0056273085
0000c0 fc b6 09 3d 29 44 d8 3c be 6e 99 b7 64 c0 41 bd
       0.033621773 0.026399689 -1.829059e-05 -0.04730262
0000d0 16 e7 fd 3c 23 80 33 3d ee c0 27 3d 50 10 44 bc
       0.03099398 0.043823373 0.040955476 -0.01196678
0000e0 0a 8c 8b bc ca c1 32 3d bd 0f 49 3d f4 51 3b bc
       -0.01703455 0.043641843 0.049087275 -0.011433113
0000f0 f4 af 36 bd f4 d2 3c 3d 94 3c 48 bd 33 3c 4a 3d
       -0.044601396 0.046099618 -0.048885897 0.049373817
000100 77 41 23 bc e6 94 76 3d d8 52 27 bc 9d 19 ad 3c
       -0.0099643385 0.060200594 -0.010212623 0.021130377
000110 3f 3c 3c bd c5 4c 4c 3d 2a 18 5d 3d 86 3a 37 3d
       -0.045955893 0.0498779 0.053978123 0.044733547
000120 e2 8a 13 3d dd 3f 7a bd eb fe 5a 3d d9 22 ea 3b
       0.03602112 -0.06109606 0.053465765 0.0071452674
000130 fb 2b fa bc 42 12 e5 ba 00 3a 5b 3d 86 d2 59 bd
       -0.03053855 -0.0017476755 0.05352211 -0.053179286
000140 1f e7 1f bd 8c b2 44 3d f7 1f 66 bb 71 05 3e 3d
       -0.039038774 0.048021838 -0.0035114267 0.046391908
000150 2f d5 9c bb 79 e2 c5 bc 38 e4 3c bd 27 3d 44 bd
       -0.0047861557 -0.024155842 -0.046116084 -0.047909882
000160 8b 8f 0b bd 6c b7 3b bd 73 73 22 3d a0 0b 37 3d
       -0.03407244 -0.04582922 0.039660882 0.04468882
000170 bc 95 76 3c 61 83 36 bd 2c 32 4b 3c c5 d8 1e bd
       0.015050348 -0.044558886 0.012402099 -0.038780946
000180 71 9b 8d bc 57 cb c8 bc 42 2a cb 3b fc e3 1f bb
       -0.017286034 -0.024511022 0.006200106 -0.0024397364
000190 d7 44 54 3d 17 62 3b bd 5e ea 60 bd fb 40 49 bd
       0.051823463 -0.045747843 -0.05491101 -0.049134236
0001a0 e4 bb 20 bd 41 25 1b bc 83 da 59 bc ad 32 5c bc
       -0.039241686 -0.009469331 -0.013296726 -0.013439816
0001b0 00 7b 13 bd d9 36 20 3d a0 d2 9c 3c eb e1 75 3c
       -0.036005974 0.039114807 0.019143403 0.015007476
0001c0 8d 15 a6 3b 7b fe 4c bb a1 ed 3d bd bc 70 9d 3c
       0.005068487 -0.0031279612 -0.0463692 0.019218795
0001d0 13 e9 10 3d cf 7f 12 bd 74 0c 07 3d 8a d0 9e 3b
       0.035378527 -0.03576642 0.03297086 0.004846637
0001e0 4a cc bc bc 6d 8f 1b 3c 96 99 21 3c e0 6e 9f 3c
       -0.023046631 0.009494645 0.009863278 0.019462049
0001f0 b2 5e cf 3b d2 45 1b 3c 85 98 81 3c aa db 29 3c
       0.006328427 0.009477096 0.015819797 0.010367313
000200 ea 5a c6 bb 86 3d 33 bd 87 5c 1e 3d c9 36 3d 3b
       -0.0060533183 -0.043759845 0.03866246 0.0028871766
000210 52 33 00 3d c7 9d 04 bc 0b f1 1b 3d 75 4e 04 bc
       0.031298943 -0.008094258 0.038071673 -0.008075346
000220 a7 74 b0 3c 3f 1d 2e bc 24 92 55 bd 1f ae 3e bd
       0.02154 -0.01062709 -0.052141324 -0.046552774
000230 30 53 15 3d 20 2f 45 bd 6c 2d 33 bd e7 e1 1d 3c
       0.036456287 -0.048140645 -0.04374449 0.009636379
000240 72 d8 0d bd bb 92 47 3b 97 3f e8 bb f0 87 3f bc
       -0.034630246 0.0030452448 -0.0070876586 -0.011690125
000250 70 dc ae bc a9 3c 5c 3c 7d 55 a9 3c 3b 54 48 bd
       -0.021345347 0.013442197 0.020670647 -0.048908453
000260 8d c9 56 bc 59 0c 9e 3c 2f ea 41 3d 54 a1 71 3d
       -0.013109577 0.019292997 0.047342476 0.058991745
000270 91 26 a8 3b 01 8e 7e 3c 86 93 a1 3c be dc 38 3d
       0.0051315506 0.015536786 0.019723665 0.04513239
000280 89 7f c9 3a 16 8a 66 bd 9d 67 41 bd 1c ba 66 bd
       0.0015373091 -0.056284033 -0.047217954 -0.05632983
000290 0c 65 a0 bb 17 64 0f bd 98 da 14 3d 9d 66 4e bd
       -0.004894858 -0.035007562 0.03634128 -0.05039083
0002a0 f8 6c 54 3d 56 4c 27 3d 9a f9 53 bc 77 97 3b bd
       0.051861733 0.040844284 -0.012937928 -0.045798745
0002b0 e5 c5 35 bd 5d cf 4e 3c a0 95 2d 3c b2 4f 56 3c
       -0.04437818 0.012622681 0.010594755 0.013080524
0002c0 d8 4d b5 bb 83 4e 48 bd 37 8f 43 3d b5 4d 29 3c
       -0.0055329613 -0.048903 0.047744002 0.010333468
0002d0 f9 d9 ed 3c 87 a3 4b 3d 8d 0d 7a 3c 7c d0 98 bc
       0.029034602 0.0497165 0.01526202 -0.0186541
0002e0 b2 17 ee bc fb 9f 19 3c 42 9d 2e bd eb d9 8e 3d
       -0.029064033 0.009376521 -0.04263044 0.06975158
0002f0 d5 ca 09 bc 87 71 ce 3b c5 1b 09 bd 5e 3b c3 3c
       -0.008410175 0.0063001546 -0.03347375 0.02383202
000300 05 62 dc bc 89 eb 91 bc 39 c9 25 bd ac 36 ca 3b
       -0.026902208 -0.017812507 -0.040475104 0.006171068
000310 4c 3f 71 bc 8b 3c 32 bd af 3e 4b bc f6 f1 3b 3c
       -0.014724564 -0.04351477 -0.012405082 0.011471262
000320 94 9a 85 3c f1 83 3e bd d2 1d 47 bd c7 95 49 3d
       0.01630906 -0.046512548 -0.048612423 0.049215104
000330 5e c4 82 3c ea 2f c0 3c 49 27 25 3d ee 45 d1 bc
       0.015962776 0.023460347 0.04032067 -0.02554604
000340 3b 79 d2 bc 67 ce 04 bc e7 3b 21 3d be af 47 bd
       -0.025692573 -0.008105851 0.039363768 -0.048751585
000350 97 c0 c4 bb bf be 27 3b 80 b6 3d bd 75 f8 4d 3d
       -0.006004404 0.0025595871 -0.046316624 0.050285775
000360 72 ad a0 bc 21 f5 41 bd 2f 61 4d bd f7 66 3d bd
       -0.019613955 -0.047352914 -0.05014151 -0.046240773
000370 ea 74 16 bd b5 22 08 bd 5b 5f 10 3d 20 fd 5c bc
       -0.03673259 -0.033236224 0.035247188 -0.013488084
000380 15 30 2f bc a4 7a 40 bd 84 01 66 bc a8 a5 2e bc
       -0.010692616 -0.04699196 -0.014038447 -0.010659613
000390 1c 6a 0c 3d 7b 42 33 3d d0 69 e6 bc 65 a2 64 3d
       0.03428088 0.043764573 -0.028126627 0.055818934
0003a0 2e d9 3e bd 73 54 13 3a b8 3d 76 bc 40 14 4e 3d
       -0.046593837 0.0005620189 -0.015029363 0.05031228
0003b0 ce 23 a9 3c cd 6d c2 bb 9d 04 16 bc ef 38 1d 3d
       0.020646956 -0.0059334994 -0.009156373 0.038384374
0003c0 65 80 1d 3d 3b d1 14 bd 96 86 32 3b 05 4d 3d bd
       0.038452525 -0.03633235 0.0027240864 -0.04621603
0003d0 48 b9 96 bc 8b c1 24 bd b0 61 18 3d 0b cd 38 3d
       -0.018398896 -0.04022364 0.037202537 0.04511742
0003e0 f9 72 0b bd fc 80 be bb e8 b7 34 3d fc ca 34 bd
       -0.034045193 -0.005813716 0.0441207 -0.044138893
0003f0 00 fb a8 3a eb 0a 1c 3c 8f 51 45 bd 4e 63 3d bc
       0.0012892187 0.009524087 -0.048173483 -0.011559321

embedding_item_category.weight f4 [19, 4]
000000 b7 75 4c bd 62 a6 3d 3d aa e4 0d bd b9 d4 2d bd
       -0.04991695 0.046301253 -0.0346419 -0.042439196
000010 a4 c0 c4 bd f4 b6 af 3d 40 72 9e bd 4a b2 b4 bd
       -0.09607056 0.085798174 -0.07736635 -0.088230684
000020 bf 12 8b bd 2d 18 8d 3d 11 6e 95 bd 8b 06 ad bd
       -0.06790685 0.06889377 -0.07296384 -0.084485136
000030 57 77 cb bd cb 5a ab 3d 4f 34 e4 bd 88 22 ce bd
       -0.09934872 0.08366927 -0.111427896 -0.1006518
000040 ca 51 b9 bd 3b e8 cb 3d 49 03 b6 bd de 2c d4 bd
       -0.09048803 0.09956404 -0.08887345 -0.1036012
000050 bc 48 18 be ad 1c 05 3e 1d b5 0e be 9e 32 26 be
       -0.14871496 0.1299922 -0.13936277 -0.16230246
000060 b8 15 41 be 76 e4 28 3e c9 e9 27 be ba 8b 3b be
       -0.18855941 0.16493401 -0.16397776 -0.1831502
000070 42 46 37 be 1c 99 28 3e dc ba 37 be dd 73 29 be
       -0.17897895 0.16464657 -0.17942375 -0.16548105
000080 dd 19 33 be 8e 10 2d 3e 12 e7 29 be 0d 7c 2f be
       -0.17490335 0.16900846 -0.16592053 -0.17137165
000090 21 ee 31 bd 4e 0b 3b 3d 34 2a 3c bd 42 1e 17 bd
       -0.043439988 0.045665078 -0.045938686 -0.03689409
0000a0 c2 7d c0 bd ae 94 c0 3d 83 85 cd bd fe 9e b7 bd
       -0.093989864 0.094033584 -0.10035231 -0.08965872
0000b0 bc 58 2f be 5b 09 29 3e 28 0d 27 be bb 7c 1e be
       -0.17123693 0.16507475 -0.16313612 -0.15477268
0000c0 bd b0 e8 bd fb 52 eb 3d 54 a9 00 be cd 63 f3 bd
       -0.11361835 0.11490437 -0.12564594 -0.1188427
0000d0 de 24 05 be 5c c6 e4 3d 39 eb e7 bd e4 09 f5 bd
       -0.13002345 0.111706465 -0.11324162 -0.11964777
0000e0 c3 0c b9 bd 6d 2b da 3d e7 d9 ee bd cd 32 c7 bd
       -0.09035637 0.10652814 -0.11662655 -0.09726486
0000f0 10 15 f2 bd 1b 56 e9 3d 32 09 f6 bd fc a3 cf bd
       -0.118204236 0.113933764 -0.120134726 -0.101386994
000100 17 9d 07 be 35 e7 ee 3d dc 7b fe bd 37 63 d9 bd
       -0.13243519 0.11665193 -0.12425968 -0.10614627
000110 eb 4f 1c be f7 1e 1c 3e 1d 36 16 be d1 01 39 be
       -0.15264861 0.15246187 -0.1466908 -0.18067099
000120 55 10 cc bd 19 53 a7 3d 85 02 a1 bd f8 9e d9 bd
       -0.099640526 0.081701465 -0.07861809 -0.10626024

embedding_media_type.weight f4 [2, 4]
000000 a4 a2 4e 3e 5c 4a 42 3e f2 9a 3e 3e 9b 22 59 3e
       0.2017923 0.18973678 0.18613794 0.21204607
000010 30 6f 5d 3e 51 86 5d 3e 3c f9 70 3e 70 7d 52 3e
       0.21624446 0.21633269 0.23532575 0.20555663

embedding_channel_category.weight f4 [16, 4]
000000 1f af 1b be 2e 5e 1c 3e f7 7e 28 be 08 4d 2a 3e
       -0.15203522 0.15270302 -0.16454683 0.16630948
000010 22 07 f3 bd 4e 6b 03 3e 33 6d d6 bd 6c ce 0f 3e
       -0.11866595 0.12833902 -0.10470047 0.14043587
000020 fd 2d f9 bd 82 7e f6 3d b4 10 01 be 6f 08 0d 3e
       -0.12166975 0.12035848 -0.12604028 0.13772748
000030 f5 25 03 be 0f 20 f3 3d 6a f2 cc bd 98 83 e8 3d
       -0.12807448 0.11871349 -0.10007174 0.113532245
000040 47 2d 23 be a7 1e 26 3e 82 cc 10 be 03 37 11 3e
       -0.1593524 0.1622263 -0.14140514 0.14181142
000050 0c 7c 12 be af b8 19 3e 0b 2b 1a be 80 30 17 3e
       -0.14305133 0.15011857 -0.15055482 0.14764595
000060 71 30 1b be 30 92 2a 3e 9a 54 14 be a0 be 2a 3e
       -0.15155198 0.16657329 -0.14485398 0.1667428
000070 ff c2 2b be 4d 25 26 3e 7b ee 18 be 8b 53 3a 3e
       -0.16773604 0.16225167 -0.14934723 0.18195932
000080 7d db 09 be 2d c5 09 3e 8d ec ec bd b9 29 0e 3e
       -0.13462634 0.13454123 -0.11568556 0.13883103
000090 a8 26 1f be 35 ca 1c 3e 1c d5 21 be ef 90 26 3e
       -0.1554209 0.15311511 -0.15803951 0.16266225
0000a0 98 b9 ed bd 52 4e e1 3d e4 68 d5 bd 11 86 fc 3d
       -0.11607665 0.110012665 -0.10420397 0.12330259
0000b0 16 c0 19 be 77 8b 05 3e 1c 48 04 be 58 79 09 3e
       -0.15014681 0.13041483 -0.12918133 0.13425195
0000c0 ae 65 20 be 40 cb 17 3e d4 ce 0b be a6 f7 24 3e
       -0.15663788 0.14823627 -0.13653117 0.16110095
0000d0 38 b2 04 be b3 49 09 3e 81 76 e1 bd 5c 1f ff 3d
       -0.1295861 0.1340702 -0.11008931 0.12457153
0000e0 a4 45 0a be 8e 6e 16 3e cf 97 16 be 38 d9 26 3e
       -0.13503128 0.14690611 -0.14706348 0.162938
0000f0 6d e4 05 be 9b f7 d1 3d ae 1c f5 bd b8 88 f6 3d
       -0.13075419 0.10252305 -0.11968361 0.12037796

embedding_subscribers.weight f4 [101, 4]
000000 6d b0 cf bd 21 6b dd 3d 10 1c e8 3d 7a fd d6 3d
       -0.101410724 0.10811449 0.113334775 0.104975656
000010 34 00 d9 bd 42 79 d1 3d 07 2b e1 3d 48 0f e1 3d
       -0.10595742 0.10228206 0.10994535 0.10989243
000020 65 a9 00 be 77 7b ff 3d d3 f7 ec 3d c6 32 f2 3d
       -0.12564619 0.12474721 0.11570706 0.118260905
000030 86 7f 1b be 1e 20 1b 3e e6 d5 1c 3e db cf 0f 3e
       -0.15185365 0.1514897 0.15315971 0.14044134
000040 d2 a3 05 be eb 47 fc 3d 04 2c e6 3d e7 7c f2 3d
       -0.13050774 0.12318405 0.11238864 0.118402295
000050 6d 75 2a be 22 16 24 3e a9 e5 32 3e bc 53 25 3e
       -0.16646357 0.16024068 0.17470421 0.16145223
000060 5b fa 1c be 1c 27 14 3e ef 9d 0b 3e 6f 47 17 3e
       -0.15329878 0.14468044 0.13634466 0.14773344
000070 e9 67 82 bd bd 4c b3 3d fd bd b6 3d 41 f1 95 3d
       -0.063674755 0.08754871 0.08922956 0.07321406
000080 53 98 04 be 9e 0a 07 3e c4 ad 11 3e a9 c5 0a 3e
       -0.12948732 0.13187644 0.14226443 0.13551964
000090 c9 e6 f0 bd 94 f7 e8 3d 6d b4 da 3d 71 15 d9 3d
       -0.11762769 0.11375347 0.10678945 0.10599793
0000a0 d5 5a 6d bd 5a fd 7b 3d d5 45 82 3d 0e 99 64 3d
       -0.057947952 0.06152091 0.06360976 0.055810027
0000b0 b3 4b ad bd 7f 15 9b 3d 5e fc aa 3d dc bc ca 3d
       -0.08461704 0.075724594 0.083489165 0.09899303
0000c0 bc 68 d7 bd 45 46 df 3d e8 c6 c5 3d 17 e4 bb 3d
       -0.10518023 0.10902075 0.09657079 0.09174364
0000d0 c6 07 95 bd 42 24 7e 3d 38 69 9b 3d 1b 35 9d 3d
       -0.07276873 0.062046297 0.07588428 0.07676145
0000e0 72 45 c5 bd 5d 5d b8 3d 5c 68 e2 3d 7a 6e ab 3d
       -0.09632386 0.09002183 0.11055061 0.08370681
0000f0 dd f0 84 bd ed 27 58 3d 7a 8f 90 3d d9 3f 92 3d
       -0.064912535 0.05277245 0.07058616 0.07141084
000100 dd 19 02 be 40 bc 04 3e a9 0c 13 3e 08 fb 07 3e
       -0.12705179 0.12962437 0.14360298 0.13279355
000110 da ce 92 bd 9a 6e 86 3d 84 e1 71 3d 31 30 7a 3d
       -0.0716836 0.06564064 0.05905296 0.061081115
000120 a9 4c 96 bd 17 a0 8b 3d a2 3c 85 3d 13 56 88 3d
       -0.073388405 0.06817644 0.065057054 0.06657042
000130 56 54 d7 bd 2b 6f d3 3d cd 23 cd 3d dd 1a c7 3d
       -0.10514133 0.10323938 0.10016594 0.09721921
000140 58 c4 aa bd d6 0b 98 3d 4b df 9d 3d 54 02 a0 3d
       -0.08338231 0.074241325 0.077086054 0.07812944
000150 29 8b 9a bd df 32 b6 3d b6 81 b1 3d 2e bd 98 3d
       -0.07546074 0.08896422 0.086673185 0.07457958
000160 21 b3 ca bd c3 88 ca 3d d6 3d e2 3d 84 12 9d 3d
       -0.098974474 0.098893665 0.110469505 0.07669547
000170 30 c5 a5 bd 14 5b a9 3d d2 14 ba 3d 03 05 a9 3d
       -0.08094251 0.08269325 0.090860024 0.08252909
000180 01 db 39 bd 12 14 05 3d 83 ad 18 3d 40 5b 30 3d
       -0.045374874 0.032489844 0.03727485 0.043055773
000190 88 ab 2d bd 8b 15 5b 3d 52 07 5a 3d 54 35 59 3d
       -0.042399913 0.05348734 0.053229637 0.053029373
0001a0 ba 88 56 bd 55 6f c8 3c 4e 27 79 3d 0a 3a 29 3d
       -0.052376486 0.02446715 0.0608285 0.041315116
0001b0 ef 58 b1 38 12 24 80 37 10 ef 88 b8 55 f4 03 b8
       8.456583e-05 1.5275586e-05 -6.529514e-05 -3.1460386e-05
0001c0 62 fc af bd ca 1e ad 3d 31 48 ae 3d 34 a0 b6 3d
       -0.0859306 0.08453138 0.08509863 0.08917275
0001d0 65 82 33 bd 08 b5 4d 3d ba a2 6e 3d 55 d8 5b 3d
       -0.043825526 0.050221473 0.058260657 0.053673107
0001e0 56 77 83 bd 44 f6 9b 3d 7a 57 81 3d ea 3e 51 3d
       -0.06419246 0.07615331 0.06315513 0.05108539
0001f0 21 7d b4 bd e9 f6 92 3d ad dd a3 3d 51 0c aa 3d
       -0.08812929 0.071760006 0.08001266 0.083031304
000200 31 32 54 bd f3 f4 47 3d 83 f6 43 3d 51 6d 31 3d
       -0.05180568 0.048817586 0.047842514 0.043317143
000210 c1 92 07 37 c8 60 96 38 6f 13 b0 b8 39 2e a0 b8
       8.080796e-06 7.170584e-05 -8.395954e-05 -7.638004e-05
000220 ad a8 36 bd 27 bd 40 3d 36 74 76 3d 8e c4 56 3d
       -0.044594456 0.04705539 0.06016942 0.052433543
000230 08 fe 4f bd f5 b0 2f 3d 7f 40 5f 3d 90 fb 3a 3d
       -0.050779372 0.04289337 0.054504868 0.045650065
000240 1a f0 9a bd 4a 57 aa 3d 1f 3b 82 3d 7a 79 8f 3d
       -0.07565327 0.0831743 0.06358933 0.07005592
000250 d7 2c 33 bd ec 93 0a 3d 15 53 3b 3d a1 eb 1f 3d
       -0.043743934 0.033832476 0.04573353 0.039043073
000260 b4 c0 67 38 68 b7 21 38 17 dd c4 b7 82 75 61 38
       5.525416e-05 3.85562e-05 -2.3467974e-05 5.3753618e-05
000270 de 28 71 b5 c8 81 4c b8 64 33 9d 38 0c 07 04 b8
       -8.9838966e-07 -4.875826e-05 7.4959156e-05 -3.1477815e-05
000280 7b 3a 2f bd 56 26 24 3d d4 65 e7 3c 44 12 22 3d
       -0.04278038 0.040075622 0.028246798 0.0395682
000290 45 75 74 bd 6c cb 85 3d df 8b 86 3d 1a 28 81 3d
       -0.05968215 0.0653294 0.06569647 0.06306477
0002a0 88 a1 a8 b7 34 3f 7c b8 83 6d 29 37 81 69 7b 38
       -2.010238e-05 -6.0140344e-05 1.0098683e-05 5.994132e-05
0002b0 3d 7b 98 bd 73 77 87 3d a3 08 8d 3d b5 c9 5b 3d
       -0.07445381 0.0661458 0.06886413 0.05365916
0002c0 f0 79 c0 bc 01 20 15 3d 67 23 ce 3c d2 8b e1 3c
       -0.023495644 0.036407474 0.025163366 0.027532492
0002d0 7d 56 cc b8 5b 7f 91 36 a9 68 7f 37 84 d6 9e 37
       -9.743588e-05 4.336163e-06 1.52235525e-05 1.893496e-05
0002e0 94 66 c9 b8 22 08 7a 37 c3 a6 04 37 07 0a 39 38
       -9.6035335e-05 1.4903055e-05 7.90664e-06 4.4116776e-05
0002f0 32 04 e0 37 ee 37 c9 38 58 c8 63 b8 5a 1f a8 37
       2.6704834e-05 9.5948446e-05 -5.4307602e-05 2.004176e-05
000300 60 49 4b 37 65 cb c0 38 fa 8f 7f b8 5c 24 f3 b7
       1.2116827e-05 9.1931586e-05 -6.0930826e-05 -2.8984789e-05
000310 85 d5 0d b8 22 51 d7 b8 94 7f bc 38 4e 3f 13 38
       -3.3815875e-05 -0.00010267111 8.988302e-05 3.510649e-05
000320 4a 47 d6 b7 d6 39 e5 b8 f4 61 45 38 62 27 2c 35
       -2.5543985e-05 -0.00010930344 4.7059686e-05 6.41323e-07
000330 c3 67 f0 36 6a b2 59 38 c6 3a 19 38 67 42 56 b8
       7.164637e-06 5.1902993e-05 3.653278e-05 -5.1083418e-05
000340 08 1d dc 37 e1 b0 a1 b7 23 06 19 38 4a 21 1e b8
       2.6239562e-05 -1.9275061e-05 3.6483758e-05 -3.770114e-05
000350 f1 ea 98 38 ba c9 fb 36 8a 1f 0a b8 56 d6 db 36
       7.291686e-05 7.503867e-06 -3.2931137e-05 6.5516606e-06
000360 90 93 4f 37 64 15 24 38 62 6a 16 38 4a 04 8c 38
       1.23725185e-05 3.912057e-05 3.5861864e-05 6.676519e-05
000370 38 c8 24 b8 1a a1 e7 38 c4 8b 4c b8 33 cc 37 38
       -3.9287115e-05 0.00011044946 -4.8767557e-05 4.3820775e-05
000380 3e ce 00 37 58 b2 5b b8 4a 14 4d 38 1d f6 00 38
       7.677414e-06 -5.2379764e-05 4.8894704e-05 3.074679e-05
000390 0b 55 79 b8 4f d1 8d b7 92 6d d7 37 01 1b 8b b8
       -5.944543e-05 -1.6905977e-05 2.568102e-05 -6.6330664e-05
0003a0 c7 04 a1 38 63 29 e1 37 eb b9 a7 b8 d8 ea 55 37
       7.677968e-05 2.6841362e-05 -7.9978105e-05 1.2750468e-05
0003b0 2b 59 db 37 57 d9 c3 b8 c5 ab 0d b8 53 1c 2e 38
       2.6148356e-05 -9.338807e-05 -3.3776992e-05 4.151121e-05
0003c0 0d dd 7f b8 47 94 03 38 4b 86 39 b7 2f a3 01 35
       -6.1002607e-05 3.1370928e-05 -1.1058127e-05 4.829371e-07
0003d0 3a c5 97 b8 55 ec 3b 38 35 18 b9 b7 67 56 f6 36
       -7.2369774e-05 4.4804376e-05 -2.206499e-05 7.34143e-06
0003e0 70 79 02 38 94 f6 8e 38 03 34 be 38 dd b6 2b 36
       3.1107513e-05 6.8170164e-05 9.069594e-05 2.5587426e-06
0003f0 c6 05 6f b8 c6 cb f1 b7 3c 38 73 37 b4 ec 47 38
       -5.6987417e-05 -2.8824328e-05 1.4497022e-05 4.7665744e-05

fc_layers.0.weight f4 [64, 24]
000000 04 f6 31 38 1d 86 b6 b7 db 3f 83 37 33 ff b6 38
       4.242921e-05 -2.1758542e-05 1.5646152e-05 8.725971e-05
000010 af 73 d2 38 1a a1 89 b6 77 a8 06 b8 06 b1 e2 b7
       0.00010035128 -4.101673e-06 -3.2104985e-05 -2.7023732e-05
000020 de a9 ba 38 8e c0 b6 35 69 31 48 35 c6 62 43 b8
       8.9008114e-05 1.3616097e-06 7.457771e-07 -4.6583613e-05
000030 5c 3e 4e b7 c6 49 73 38 5f 21 bf 37 0a c7 9b b7
       -1.2293076e-05 5.800442e-05 2.2784514e-05 -1.8570125e-05
000040 0a 51 0f b8 92 1b e7 b8 a6 fd 44 b8 7b 79 9d 34
       -3.416933e-05 -0.00011020074 -4.696627e-05 2.9331918e-07
000050 c2 3f de 38 9d c0 2b 37 0f 07 8b 37 17 a0 90 37
       0.00010597661 1.02372405e-05 1.6573378e-05 1.7240685e-05
000060 96 72 9f 3c 37 1d 31 be 26 86 21 3e 60 e5 45 3e
       0.019463819 -0.17296301 0.1577383 0.19325781
000070 68 45 21 be cc 2c db bc 83 50 5f bc ae 32 24 3e
       -0.15749133 -0.02675476 -0.013630035 0.16034958
000080 0e 2a 54 be 20 3c 49 3e 74 8a 49 be f5 52 53 be
       -0.20719168 0.19651842 -0.19681722 -0.20637114
000090 6b a6 5d 3e 42 e5 5c 3e ba 2f 4f 3e 74 ab 45 3e
       0.21645515 0.2157183 0.2023305 0.19303685
0000a0 6c 66 5a be ce 47 52 3e 55 66 47 be 37 34 59 3e
       -0.21328133 0.20535204 -0.1947263 0.21211325
0000b0 28 a7 4c be 9a 51 4c 3e cc ee 57 3e 63 ae 5f 3e
       -0.1998564 0.19953004 0.21087188 0.21843867
0000c0 bb d1 ac 37 51 6e 90 b7 91 5d d1 b6 21 08 5e 38
       2.0601661e-05 -1.7217508e-05 -6.239578e-06 5.2936495e-05
0000d0 f0 50 9f 35 4c 6f 4f b8 2e 24 15 36 6a 3a 13 b7
       1.1869979e-06 -4.94563e-05 2.222379e-06 -8.775483e-06
0000e0 66 52 e8 38 52 4e 7e b8 dc 6f 8f b8 b2 8c 64 38
       0.0001107797 -6.063126e-05 -6.839607e-05 5.449047e-05
0000f0 7c d8 21 b8 5c 41 89 38 2e 16 ad 38 51 ab a1 b8
       -3.8587008e-05 6.544843e-05 8.253414e-05 -7.7089884e-05
000100 c4 06 b9 37 f1 4c a9 38 6f 1f cf 38 6e 8c 11 38
       2.2056869e-05 8.0728794e-05 9.876384e-05 3.470148e-05
000110 70 f2 e2 38 03 e2 05 b8 fe c8 33 36 50 0a 86 b8
       0.00010821677 -3.192016e-05 2.6790071e-06 -6.391539e-05
000120 b3 14 bb b8 fa 78 60 b8 ab 7d b8 b8 89 ef 84 b8
       -8.9207104e-05 -5.351843e-05 -8.797211e-05 -6.3388674e-05
000130 74 a6 53 b8 f2 a0 ba 38 d9 f6 90 b7 2c ba 7d 38
       -5.046134e-05 8.8991495e-05 -1.7281085e-05 6.0493287e-05
000140 5d df ad b8 5e 19 66 b5 67 ed 6a b7 bc 26 30 b8
       -8.2908875e-05 -8.571859e-07 -1.4002761e-05 -4.1997744e-05
000150 89 ed 80 38 64 f1 e6 38 92 12 9d 36 04 e2 2c b8
       6.14776e-05 0.00011012217 4.6811265e-06 -4.121849e-05
000160 c3 29 77 b8 96 40 d0 b8 ea d2 9c b8 59 69 03 38
       -5.8928283e-05 -9.930243e-05 -7.4779455e-05 3.1330947e-05
000170 f3 aa 51 38 7d b5 35 37 9c de bb 38 6c 23 fe b6
       4.9988692e-05 1.0830697e-05 8.958319e-05 -7.5739135e-06
000180 ff 78 24 38 63 7e e9 38 44 a0 a6 38 2e f9 3b b7
       3.9213333e-05 0.00011133847 7.9453486e-05 -1.1204085e-05
000190 9c fa fd b7 41 fc e7 b7 e8 4e cc 36 99 29 6a 38
       -3.027665e-05 -2.765481e-05 6.0888597e-06 5.582869e-05
0001a0 3b 79 42 b8 d2 7e b7 b8 67 4e 95 38 80 6b 2d b8
       -4.636611e-05 -8.749742e-05 7.119477e-05 -4.134653e-05
0001b0 a2 91 d1 b8 2e c2 4c 38 a2 dc 97 b8 23 cd ba 38
       -9.993023e-05 4.8818234e-05 -7.241337e-05 8.907381e-05
0001c0 33 06 83 38 e8 eb 74 38 45 f8 4a b8 5d 74 11 b8
       6.2477215e-05 5.8393838e-05 -4.8391772e-05 -3.4679066e-05
0001d0 45 ba 55 b8 44 2b a7 b7 ec cb 14 b8 09 f1 e6 38
       -5.0956634e-05 -1.9928098e-05 -3.5475867e-05 0.00011012151
0001e0 f8 19 ad 3c f0 b4 21 be 87 90 1e 3e e2 c4 35 3e
       0.021130547 -0.15791678 0.1548482 0.17750886
0001f0 ea ed 1b be 93 93 99 bc 65 a6 c6 bc b2 26 29 3e
       -0.15227476 -0.018747127 -0.024249265 0.16518667
000200 a5 36 54 be d6 5d 4e 3e 53 8a 45 be 9b 3d 45 be
       -0.2072397 0.20152983 -0.19291048 -0.19261782
000210 c3 62 53 3e ce ca 56 3e bb ee 59 3e a5 db 5a 3e
       0.20643143 0.20975801 0.21282475 0.2137285
000220 2b 42 4a be 17 e3 55 3e d6 c1 45 be f2 c5 56 3e
       -0.19751804 0.20887409 -0.19312224 0.20973948
000230 7a ce 43 be 0c 47 48 3e 11 0b 40 3e 6b 36 41 3e
       -0.19121733 0.19558352 0.18754221 0.18868415
000240 8a 9f b0 b8 af c7 0d b8 dd 86 02 b8 80 6c a5 37
       -8.4220505e-05 -3.380299e-05 -3.1120017e-05 1.9720057e-05
000250 d4 66 f4 b5 a8 3d b3 b8 51 ec 8c 38 4a f6 bd 38
       -1.8209344e-06 -8.5468695e-05 6.7197376e-05 9.058097e-05
000260 e9 9b db 37 ae 42 36 b4 ab 3b e6 b7 83 df bf b8
       2.6179436e-05 -1.6974329e-07 -2.7445922e-05 -9.149222e-05
000270 ae 2e ac b7 d4 46 b7 b8 11 31 1b 37 8d f6 96 b8
       -2.0525735e-05 -8.739313e-05 9.250144e-06 -7.198481e-05
000280 24 70 bb b7 38 fd f6 b6 1e 2d 54 b8 64 f6 c3 b7
       -2.2344357e-05 -7.36085e-06 -5.0586757e-05 -2.3360546e-05
000290 2f 3f eb 38 53 49 88 37 35 6e a0 37 cf 86 82 38
       0.00011217442 1.6246608e-05 1.9124805e-05 6.223993e-05
0002a0 ee 24 cc 3c 14 3a 20 be 8c 2d 27 3e f8 9a 37 3e
       0.024919953 -0.15647155 0.16325969 0.1793021
0002b0 a8 b7 21 be a8 a0 99 bc 8d 36 fa bc 0b 08 17 3e
       -0.15792716 -0.018753365 -0.03054359 0.14749162
0002c0 a8 9f 55 be df a2 53 3e be 8c 62 be 00 8b 55 be
       -0.20861685 0.20667599 -0.22124001 -0.20853806
0002d0 4f e9 5e 3e 8d 5e 4a 3e 79 46 5c 3e 1f 75 57 3e
       0.21768688 0.19762631 0.21511258 0.21040772
0002e0 8c 26 59 be f8 a0 5e 3e 85 02 54 be 19 8b 59 3e
       -0.2120611 0.21741092 -0.20704086 0.21244468
0002f0 f7 4c 52 be e0 0a 50 3e fe 2a 54 3e 47 9e 4e 3e
       -0.20537172 0.20316648 0.20719525 0.20177566
000300 f0 cf c7 b8 0d 12 55 38 22 ad d1 b7 9e b4 5f 38
       -9.527791e-05 5.079997e-05 -2.4995363e-05 5.3335556e-05
000310 82 29 88 37 c0 d1 1c 37 d1 46 94 b7 c3 91 da 36
       1.6231792e-05 9.347161e-06 -1.7675951e-05 6.513875e-06
000320 26 a2 d9 b6 79 d9 da 37 7a 3b 25 38 0d 01 4c b8
       -6.4859805e-06 2.6088894e-05 3.9394457e-05 -4.863837e-05
000330 96 ba 66 38 1d 84 95 38 30 04 68 b7 32 e6 c7 38
       5.5010045e-05 7.129482e-05 -1.3829253e-05 9.531937e-05
000340 43 7d 92 38 2e 9a 26 38 9a c4 ef 38 b8 89 86 b7
       6.985154e-05 3.9721075e-05 0.00011433028 -1.6038175e-05
000350 e8 25 6f 38 c2 90 cf 37 7d 45 11 b8 11 2d 33 38
       5.7017343e-05 2.4743731e-05 -3.463541e-05 4.2718897e-05
000360 17 f7 eb b9 83 8b 32 be 69 dc 27 3e 07 0e 48 3e
       -0.0004500679 -0.17436032 0.16392674 0.19536601
000370 d5 08 1e be 66 55 aa bc 71 28 c1 bc cb 84 26 3e
       -0.15433057 -0.020792674 -0.023578854 0.16261594
000380 79 88 51 be 9e a6 4b 3e 26 e2 50 be 9a 93 4a be
       -0.20462216 0.19887778 -0.20398769 -0.19782868
000390 25 6c 5b 3e 4b 81 54 3e 61 79 5f 3e 39 99 54 3e
       0.21427973 0.20752446 0.21823646 0.20761575
0003a0 6d f0 4b be 3d df 4f 3e 20 7e 41 be 8c 9c 49 3e
       -0.19915934 0.20300002 -0.18895769 0.19688624
0003b0 46 1c 5e be 09 58 4f 3e 00 ca 41 3e 56 54 4b 3e
       -0.21690473 0.20248426 0.18924713 0.1985639
0003c0 26 6f c4 b7 45 1b b5 35 ef c9 ea b8 39 34 c9 36
       -2.3416778e-05 1.3493487e-06 -0.000111956026 5.9963463e-06
0003d0 7f 92 1f 36 82 f9 03 38 53 04 36 b8 7c 97 7e b7
       2.3778118e-06 3.1465206e-05 -4.339621e-05 -1.517485e-05
0003e0 99 3a 0e b8 e3 f6 1d b8 de 59 84 38 e1 bc d6 37
       -3.391001e-05 -3.7661648e-05 6.3109896e-05 2.5598742e-05
0003f0 e2 66 b4 38 e4 d6 55 38 75 0b 68 38 90 b3 a7 37
       8.602232e-05 5.098329e-05 5.532378e-05 1.9991567e-05

fc_layers.0.bias f4 [64]
000000 a3 26 ba bc cb f4 ab 3e 4d 34 38 b9 f2 2d ec ba
       -0.022723502 0.335852 -0.00017567091 -0.0018019064
000010 82 b3 87 38 f4 4d 7f 3e 7f 8a 19 38 7b e0 99 3e
       6.4707376e-05 0.2493208 3.6607027e-05 0.30054078
000020 e4 9b 3b ba a5 27 92 3e c0 06 87 ba 7a 5a 97 3e
       -0.00071567134 0.2854587 -0.0010301694 0.29561216
000030 66 77 b5 3e f8 0f 9c bb cc 2e 84 3e 59 c7 a4 bc
       0.35442656 -0.004762646 0.25816953 -0.020114588
000040 ad 97 31 bc 5b 02 a8 3e 78 4b f9 b8 30 96 d2 3e
       -0.010839385 0.32814297 -0.000118873024 0.4113021
000050 7f 4f 88 3e 24 64 a2 ba 47 0e 74 bc 25 f0 0e bc
       0.2662315 -0.0012389463 -0.014895982 -0.008724247
000060 93 1b 0c bb 4e 68 b8 bc 94 be af 3e 58 87 d0 3e
       -0.002137874 -0.022510674 0.34325087 0.4072826
000070 ad 30 a4 3e 0a 26 ae 3e ff f5 da 3e a6 4d 6c 3e
       0.32068387 0.34013397 0.42765805 0.23076496
000080 f3 36 3a bc 52 ba 22 bc b0 cc 28 bc f8 50 96 3e
       -0.01136564 -0.009932118 -0.010302708 0.2935865
000090 aa 46 9b bb f1 d2 c7 3e 71 ef b5 3e 61 bb c8 38
       -0.0047386484 0.39028123 0.35534242 9.571645e-05
0000a0 5b e2 8f 3e fe c9 ad 3e 04 ff a1 3e 6a b4 a0 3e
       0.28102383 0.3394317 0.31639874 0.31387645
0000b0 d0 77 ca 3e 68 4f ba 3e 56 46 84 3e e3 1a 22 38
       0.39544535 0.36388707 0.25834912 3.864885e-05
0000c0 fd 65 cc 3e dd b7 cb 3e cf 6e d2 3e 0b f9 a3 3e
       0.3992156 0.39788714 0.41100165 0.32025942
0000d0 a2 af 95 3e 71 2e 74 b8 f9 13 e8 38 47 82 a5 ba
       0.2923556 -5.8217385e-05 0.00011066342 -0.0012627327
0000e0 96 62 b9 ba d8 45 15 bb f6 2b af 3e c4 8e d1 3e
       -0.0014143761 -0.0022777226 0.34213227 0.40929234
0000f0 e3 3c a6 3e de 17 80 ba d5 f5 ae bb 7f fc 4b ba
       0.32468328 -0.0009772738 -0.005339364 -0.00077814603
